color_classifier.tflite (tflite, 1744 bytes, 4 tensors)

sequential/dense_1/BiasAdd/ReadVariableOp/resource f4 [8]
000000 24 3c 0f c0 3e 7a 86 3f e8 77 e7 c0 86 34 1d 40
       -2.2380457 1.0506055 -7.233387 2.4563308
000010 7a d6 5f 40 e3 b1 34 3e 04 a5 53 c0 e9 ac 10 41
       3.4974656 0.17645983 -3.3069468 9.042214

sequential/dense/BiasAdd/ReadVariableOp/resource f4 [7]
000000 55 d5 12 bc e0 6a f3 3f 41 e3 af bf 7c 9e 26 bf
       -0.008961995 1.9016991 -1.3741227 -0.6508558
000010 98 ec d2 bf 14 1d e3 bc 2f 94 92 3f
       -1.6478453 -0.027723826 1.1451472

sequential/dense/MatMul f4 [7, 3]
000000 4f 44 ff 3e 66 82 9b be c2 7d 8a be 24 6d e2 be
       0.49856803 -0.30372924 -0.2704907 -0.44223893
000010 15 a2 86 3e 81 7d 75 3e cc 83 26 bb b8 ff 8e 3e
       0.26295534 0.23973657 -0.0025408147 0.27929473
000020 e1 7a ff be 8f 90 a8 bd 3f fc b6 3e d2 df 4c 3e
       -0.49898437 -0.08230697 0.35739323 0.20007256
000030 ab 25 94 bd 69 5e f5 3d 48 ba 60 3e db 9f 61 be
       -0.07233747 0.11980898 0.2194606 -0.22033636
000040 42 5c e5 bb d7 30 3a bf ba 30 99 3d 1b c3 0c 3f
       -0.0069995234 -0.72730774 0.07479997 0.5498521
000050 17 7d 91 be
       -0.28415748

sequential/dense_1/MatMul f4 [8, 7]
000000 76 0d f2 bf fd 38 80 be e1 60 03 c0 01 f7 a3 3e
       -1.8910358 -0.2504348 -2.052788 0.32024387
000010 6f 7b 97 bd 0e 3b be be 53 6f a5 3d 26 d4 fe 3d
       -0.0739659 -0.3715443 0.08077874 0.12442808
000020 3a 99 ba c0 e4 bb 2c bf 56 b5 ac 3e 77 2a d5 bd
       -5.8312044 -0.674742 0.33732098 -0.1040849
000030 2e 9a a1 be ef f3 9d bd 02 70 ee bd 1d d8 88 bb
       -0.31562942 -0.07712542 -0.116424575 -0.0041761533
000040 00 36 92 be 2b c1 83 3d bc 86 44 3e 00 08 e3 ba
       -0.28556824 0.06433328 0.19192022 -0.001732111
000050 e4 a5 70 3e 24 a6 a9 be 33 82 69 3e b8 d3 62 be
       0.23500782 -0.33134568 0.22803573 -0.22151077
000060 a3 32 78 be d8 e1 df 3e 51 fd a8 bd 66 83 9a 3e
       -0.24238066 0.43726993 -0.08251441 0.30178374
000070 35 ab 12 3d 0a 4b 48 c0 c9 02 95 be d5 6c 23 3e
       0.035807807 -3.12958 -0.29103687 0.15959485
000080 8d f4 6d 3e 05 02 05 3f 20 cb c5 bc 09 0c b4 c0
       0.2323782 0.51956207 -0.02414471 -5.626469
000090 f0 0b dd 3d 0c f1 a4 c0 19 1d 47 3e 07 13 cd 3e
       0.107932925 -5.1544247 0.19444694 0.4005358
0000a0 16 31 26 be c8 3c 62 be 05 e5 1f 3e 23 c0 04 bf
       -0.16229662 -0.22093499 0.15614708 -0.5185568
0000b0 89 9a 1c c1 a8 55 38 3e 41 43 21 3f a0 4b 34 bd
       -9.787728 0.18001425 0.62993246 -0.044017434
0000c0 f4 b2 5b be 1e 6b 59 bf b7 21 89 bd 43 8a d2 c0
       -0.21454984 -0.8492907 -0.06695884 -6.5793777
0000d0 ab ed 95 3e 52 f9 c2 be ba 1d de 3e e5 75 e9 bc
       0.2928289 -0.3808084 0.43382055 -0.0284986
